…
|   total    | 51961        |            |              |            |              |[0m
[06/08 11:28:48] d2.data.common INFO: Serializing 2965 elements to byte tensors and concatenating them all ...
[06/08 11:28:48] d2.data.common INFO: Serialized dataset takes 67.26 MiB
[06/08 11:28:48] d2.data.common INFO: Serializing 2975 elements to byte tensors and concatenating them all ...
[06/08 11:28:48] d2.data.common INFO: Serialized dataset takes 21.58 MiB
[06/08 11:28:51] d2.engine.defaults INFO: Model:
DAobjTwoStagePseudoLabGeneralizedRCNN(
  (backbone): VGG(
    (vgg_block1): Sequential(
      (0): VGGBlock(
        (conv1): Conv2d(
          3, 64, kernel_size=(3, 3), stride=(1, 1), padding=(1, 1)
          (norm): FrozenBatchNorm2d(num_features=64, eps=1e-05)
        )
        (conv2): Conv2d(
          64, 64, kernel_size=(3, 3), stride=(1, 1), padding=(1, 1)
          (norm): FrozenBatchNorm2d(num_features=64, eps=1e-05)
        )
        (maxpool): MaxPool2d(kernel_size=2, stride=2, padding=0, dilation=1, ceil_mode=False)
      )
    )
    (vgg_block2): Sequential(
      (0): VGGBlock(
        (conv1): Conv2d(
          64, 128, kernel_size=(3, 3), stride=(1, 1), padding=(1, 1)
          (norm): FrozenBatchNorm2d(num_features=128, eps=1e-05)
        )
        (conv2): Conv2d(
          128, 128, kernel_size=(3, 3), stride=(1, 1), padding=(1, 1)
          (norm): FrozenBatchNorm2d(num_features=128, eps=1e-05)
        )
        (maxpool): MaxPool2d(kernel_size=2, stride=2, padding=0, dilation=1, ceil_mode=False)
      )
    )
    (vgg_block3): Sequential(
      (0): VGGBlock(
        (conv1): Conv2d(
          128, 256, kernel_size=(3, 3), stride=(1, 1), padding=(1, 1)
          (norm): BatchNorm2d(256, eps=1e-05, momentum=0.1, affine=True, track_running_stats=True)
        )
        (conv2): Conv2d(
          256, 256, kernel_size=(3, 3), stride=(1, 1), padding=(1, 1)
          (norm): BatchNorm2d(256, eps=1e-05, momentum=0.1, affine=True, track_running_stats=True)
        )
        (conv3): Conv2d(
          256, 256, kernel_size=(3, 3), stride=(1, 1), padding=(1, 1)
          (norm): BatchNorm2d(256, eps=1e-05, momentum=0.1, affine=True, track_running_stats=True)
        )
        (maxpool): MaxPool2d(kernel_size=2, stride=2, padding=0, dilation=1, ceil_mode=False)
      )
    )
    (vgg_block4): Sequential(
      (0): VGGBlock(
        (conv1): Conv2d(
          256, 512, kernel_size=(3, 3), stride=(1, 1), padding=(1, 1)
          (norm): BatchNorm2d(512, eps=1e-05, momentum=0.1, affine=True, track_running_stats=True)
        )
        (conv2): Conv2d(
          512, 512, kernel_size=(3, 3), stride=(1, 1), padding=(1, 1)
          (norm): BatchNorm2d(512, eps=1e-05, momentum=0.1, affine=True, track_running_stats=True)
        )
        (conv3): Conv2d(
          512, 512, kernel_size=(3, 3), stride=(1, 1), padding=(1, 1)
          (norm): BatchNorm2d(512, eps=1e-05, momentum=0.1, affine=True, track_running_stats=True)
        )
        (maxpool): MaxPool2d(kernel_size=2, stride=2, padding=0, dilation=1, ceil_mode=False)
      )
    )
    (vgg_block5): Sequential(
      (0): VGGBlock(
        (conv1): Conv2d(
          512, 512, kernel_size=(3, 3), stride=(1, 1), padding=(1, 1)
          (norm): BatchNorm2d(512, eps=1e-05, momentum=0.1, affine=True, track_running_stats=True)
        )
        (conv2): Conv2d(
          512, 512, kernel_size=(3, 3), stride=(1, 1), padding=(1, 1)
          (norm): BatchNorm2d(512, eps=1e-05, momentum=0.1, affine=True, track_running_stats=True)
        )
        (conv3): Conv2d(
          512, 512, kernel_size=(3, 3), stride=(1, 1), padding=(1, 1)
          (norm): BatchNorm2d(512, eps=1e-05, momentum=0.1, affine=True, track_running_stats=True)
        )
      )
    )
  )
  (proposal_generator): PseudoLabRPN(
    (rpn_head): StandardRPNHead(
      (conv): Conv2d(
        512, 512, kernel_size=(3, 3), stride=(1, 1), padding=(1, 1)
        (activation): ReLU()
      )
      (objectness_logits): Conv2d(512, 15, kernel_size=(1, 1), stride=(1, 1))
      (anchor_deltas): Conv2d(512, 60, kernel_size=(1, 1), stride=(1, 1))
    )
    (anchor_generator): DefaultAnchorGenerator(
      (cell_anchors): BufferList()
    )
  )
  (roi_heads): StandardROIHeadsPseudoLab(
    (box_pooler): ROIPooler(
      (level_poolers): ModuleList(
        (0): ROIAlign(output_size=(7, 7), spatial_scale=0.0625, sampling_ratio=0, aligned=True)
      )
    )
    (box_head): FastRCNNConvFCHead(
      (flatten): Flatten(start_dim=1, end_dim=-1)
      (fc1): Linear(in_features=25088, out_features=1024, bias=True)
      (fc_relu1): ReLU()
      (fc2): Linear(in_features=1024, out_features=1024, bias=True)
      (fc_relu2): ReLU()
    )
    (box_predictor): FastRCNNOutputLayers(
      (cls_score): Linear(in_features=1024, out_features=9, bias=True)
      (bbox_pred): Linear(in_features=1024, out_features=32, bias=True)
    )
  )
  (D_img): FCDiscriminator_img(
    (conv1): Conv2d(512, 256, kernel_size=(3, 3), stride=(1, 1), padding=(1, 1))
    (conv2): Conv2d(256, 128, kernel_size=(3, 3), stride=(1, 1), padding=(1, 1))
    (conv3): Conv2d(128, 128, kernel_size=(3, 3), stride=(1, 1), padding=(1, 1))
    (classifier): Conv2d(128, 1, kernel_size=(3, 3), stride=(1, 1), padding=(1, 1))
    (leaky_relu): LeakyReLU(negative_slope=0.2, inplace=True)
  )
)
[06/08 11:28:52] d2.engine.defaults INFO: Model:
DAobjTwoStagePseudoLabGeneralizedRCNN(
  (backbone): VGG(
    (vgg_block1): Sequential(
      (0): VGGBlock(
        (conv1): Conv2d(
          3, 64, kernel_size=(3, 3), stride=(1, 1), padding=(1, 1)
          (norm): FrozenBatchNorm2d(num_features=64, eps=1e-05)
        )
        (conv2): Conv2d(
          64, 64, kernel_size=(3, 3), stride=(1, 1), padding=(1, 1)
          (norm): FrozenBatchNorm2d(num_features=64, eps=1e-05)
        )
        (maxpool): MaxPool2d(kernel_size=2, stride=2, padding=0, dilation=1, ceil_mode=False)
      )
    )
    (vgg_block2): Sequential(
      (0): VGGBlock(
        (conv1): Conv2d(
          64, 128, kernel_size=(3, 3), stride=(1, 1), padding=(1, 1)
          (norm): FrozenBatchNorm2d(num_features=128, eps=1e-05)
        )
        (conv2): Conv2d(
          128, 128, kernel_size=(3, 3), stride=(1, 1), padding=(1, 1)
          (norm): FrozenBatchNorm2d(num_features=128, eps=1e-05)
        )
        (maxpool): MaxPool2d(kernel_size=2, stride=2, padding=0, dilation=1, ceil_mode=False)
      )
    )
    (vgg_block3): Sequential(
      (0): VGGBlock(
        (conv1): Conv2d(
          128, 256, kernel_size=(3, 3), stride=(1, 1), padding=(1, 1)
          (norm): BatchNorm2d(256, eps=1e-05, momentum=0.1, affine=True, track_running_stats=True)
        )
        (conv2): Conv2d(
          256, 256, kernel_size=(3, 3), stride=(1, 1), padding=(1, 1)
          (norm): BatchNorm2d(256, eps=1e-05, momentum=0.1, affine=True, track_running_stats=True)
        )
        (conv3): Conv2d(
          256, 256, kernel_size=(3, 3), stride=(1, 1), padding=(1, 1)
          (norm): BatchNorm2d(256, eps=1e-05, momentum=0.1, affine=True, track_running_stats=True)
        )
        (maxpool): MaxPool2d(kernel_size=2, stride=2, padding=0, dilation=1, ceil_mode=False)
      )
    )
    (vgg_block4): Sequential(
      (0): VGGBlock(
        (conv1): Conv2d(
          256, 512, kernel_size=(3, 3), stride=(1, 1), padding=(1, 1)
          (norm): BatchNorm2d(512, eps=1e-05, momentum=0.1, affine=True, track_running_stats=True)
        )
        (conv2): Conv2d(
          512, 512, kernel_size=(3, 3), stride=(1, 1), padding=(1, 1)
          (norm): BatchNorm2d(512, eps=1e-05, momentum=0.1, affine=True, track_running_stats=True)
        )
        (conv3): Conv2d(
          512, 512, kernel_size=(3, 3), stride=(1, 1), padding=(1, 1)
          (norm): BatchNorm2d(512, eps=1e-05, momentum=0.1, affine=True, track_running_stats=True)
        )
        (maxpool): MaxPool2d(kernel_size=2, stride=2, padding=0, dilation=1, ceil_mode=False)
      )
    )
    (vgg_block5): Sequential(
      (0): VGGBlock(
        (conv1): Conv2d(
          512, 512, kernel_size=(3, 3), stride=(1, 1), padding=(1, 1)
          (norm): BatchNorm2d(512, eps=1e-05, momentum=0.1, affine=True, track_running_stats=True)
        )
        (conv2): Conv2d(
          512, 512, kernel_size=(3, 3), stride=(1, 1), padding=(1, 1)
          (norm): BatchNorm2d(512, eps=1e-05, momentum=0.1, affine=True, track_running_stats=True)
        )
        (conv3): Conv2d(
          512, 512, kernel_size=(3, 3), stride=(1, 1), padding=(1, 1)
          (norm): BatchNorm2d(512, eps=1e-05, momentum=0.1, affine=True, track_running_stats=True)
        )
      )
    )
  )
  (proposal_generator): PseudoLabRPN(
    (rpn_head): StandardRPNHead(
      (conv): Conv2d(
        512, 512, kernel_size=(3, 3), stride=(1, 1), padding=(1, 1)
        (activation): ReLU()
      )
      (objectness_logits): Conv2d(512, 15, kernel_size=(1, 1), stride=(1, 1))
      (anchor_deltas): Conv2d(512, 60, kernel_size=(1, 1), stride=(1, 1))
    )
    (anchor_generator): DefaultAnchorGenerator(
      (cell_anchors): BufferList()
    )
  )
  (roi_heads): StandardROIHeadsPseudoLab(
    (box_pooler): ROIPooler(
      (level_poolers): ModuleList(
        (0): ROIAlign(output_size=(7, 7), spatial_scale=0.0625, sampling_ratio=0, aligned=True)
      )
    )
    (box_head): FastRCNNConvFCHead(
      (flatten): Flatten(start_dim=1, end_dim=-1)
      (fc1): Linear(in_features=25088, out_features=1024, bias=True)
      (fc_relu1): ReLU()
      (fc2): Linear(in_features=1024, out_features=1024, bias=True)
      (fc_relu2): ReLU()
    )
    (box_predictor): FastRCNNOutputLayers(
      (cls_score): Linear(in_features=1024, out_features=9, bias=True)
      (bbox_pred): Linear(in_features=1024, out_features=32, bias=True)
    )
  )
  (D_img): FCDiscriminator_img(
    (conv1): Conv2d(512, 256, kernel_size=(3, 3), stride=(1, 1), padding=(1, 1))
    (conv2): Conv2d(256, 128, kernel_size=(3, 3), stride=(1, 1), padding=(1, 1))
    (conv3): Conv2d(128, 128, kernel_size=(3, 3), stride=(1, 1), padding=(1, 1))
    (classifier): Conv2d(128, 1, kernel_size=(3, 3), stride=(1, 1), padding=(1, 1))
    (leaky_relu): LeakyReLU(negative_slope=0.2, inplace=True)
  )
)
[06/08 11:28:52] d2.solver.lr_scheduler WARNING: WarmupMultiStepLR is deprecated! Use LRMultipilier with fvcore ParamScheduler instead!
[06/08 11:28:52] fvcore.common.checkpoint INFO: [Checkpointer] Loading from model_burnup_c2f.pth ...
[06/08 11:29:40] d2.utils.events INF
…
